…
WARNING:tensorflow:From C:\Users\User\OneDrive\Documents\Personal\TIINFO\PFE\Phase 1 and 2 work\.venv\Lib\site-packages\keras\src\losses.py:2976: The name tf.losses.sparse_softmax_cross_entropy is deprecated. Please use tf.compat.v1.losses.sparse_softmax_cross_entropy instead.

WARNING:tensorflow:From C:\Users\User\OneDrive\Documents\Personal\TIINFO\PFE\Phase 1 and 2 work\.venv\Lib\site-packages\keras\src\backend.py:1398: The name tf.executing_eagerly_outside_functions is deprecated. Please use tf.compat.v1.executing_eagerly_outside_functions instead.

Model: "FL_BiCNN_LSTM_IDS"
_________________________________________________________________
 Layer (type)                Output Shape              Param #
=================================================================
 features (InputLayer)       [(None, 17)]              0

 reshape_to_sequence (Resha  (None, 1, 17)             0
 pe)

 conv1d (Conv1D)             (None, 1, 64)             1152

 bn_conv (BatchNormalizatio  (None, 1, 64)             256
 n)

 bidirectional_lstm (Bidire  (None, 128)               66048
 ctional)

 dense (Dense)               (None, 64)                8256

 dropout (Dropout)           (None, 64)                0

 output (Dense)              (None, 8)                 520

=================================================================
Total params: 76232 (297.78 KB)
Trainable params: 76104 (297.28 KB)
Non-trainable params: 128 (512.00 Byte)
_________________________________________________________________

Total parameters: 76,232
All layers produce weight tensors → compatible with FedAvg

FL client partitions (12 nodes):
  Client 01: 24,788 samples | classes: ['benign', 'malware', 'mitm', 'web']
…
